…
dd(tf.keras.layers.Dense(128, activation='relu'))model.add(tf.keras.layers.Dropout(0.5))model.add(tf.keras.layers.Dense(128, activation='relu'))model.add(tf.keras.layers.Dropout(0.5))model.add(tf.keras.layers.Dense(128, activation='relu'))model.add(tf.keras.layers.Dropout(0.5))model.add(tf.keras.layers.Dense(10, activation='softmax')) 1model.summary() 123456789101112131415161718192021222324Model: \"sequential_2\"_________________________________________________________________Layer (type) Output Shape Param # =================================================================flatten_2 (Flatten) (None, 784) 0 _________________________________________________________________dense_4 (Dense) (None, 128) 100480 _________________________________________________________________dropout (Dropout) (None, 128) 0 _________________________________________________________________dense_5 (Dense) (None, 128) 16512 _________________________________________________________________dropout_1 (Dropout) (None, 128) 0 _________________________________________________________________dense_6 (Dense) (None, 128) 16512 _________________________________________________________________dropout_2 (Dropout) (None, 128) 0 _________________________________________________________________dense_7 (Dense) (None, 10) 1290 =================================================================Total params: 134,794Trainable params: 134,794Non-trainable params: 0_________________________________________________________________ 1234model.compile(optimizer=tf.keras.optimizers.Adam(learning_rate=0.001), loss='categorical_crossentropy', metrics=['acc']) fit中添加validation_data123history = model.fit(train_image, train_label_oneho
…
put2],outputs=out) 那么，我们现在看一下模型最终的形态： 1234567891011121314151617181920212223Model: \"model_1\"__________________________________________________________________________________________Layer (type) Output Shape Param # Connected to ==========================================================================================input_2 (InputLayer) [(None, 28, 28)] 0 __________________________________________________________________________________________input_3 (InputLayer) [(None, 28, 28)] 0 __________________________________________________________________________________________flatten_1 (Flatten) (None, 784) 0 input_2[0][0] __________________________________________________________________________________________flatten_2 (Flatten) (None, 784) 0 input_3[0][0] __________________________________________________________________________________________concatenate (Concatenate) (None, 1568) 0 flatten_1[0][0] flatten_2[0][0] __________________________________________________________________________________________dense_3 (Dense) (None, 32) 50208 concatenate[0][0] __________________________________________________________________________________________dense_4 (Dense) (None, 1) 33 dense_3[0][0] ==========================================================================================Total params: 50,241Trainable params: 50,241Non-trainable params: 0__________________________________________________________________________________________","categories":[{"name":"tensorflow","slug":"tensorflow","permalink":"https://anxiang1836.github.io/categories/tensorflow/"}],"tags":[{"na
…
